…
ocks.10.adaptmlp.up_proj.weight', 'blocks.10.adaptmlp.up_proj.bias', 'blocks.11.adaptmlp.down_proj.weight', 'blocks.11.adaptmlp.down_proj.bias', 'blocks.11.adaptmlp.up_proj.weight', 'blocks.11.adaptmlp.up_proj.bias'], unexpected_keys=[])
After BaseNet initialization.
Clear the backbone in MultiBranchCosineIncrementalNet, since we are using self.backbones with dual branches
Constructed dual branch network.
New network structure:
MultiBranchCosineIncrementalNet_adapt_AC(
  (backbone): Identity()
  (backbones): ModuleList(
    (0): VisionTransformer(
      (patch_embed): PatchEmbed(
        (proj): Conv2d(3, 768, kernel_size=(16, 16), stride=(16, 16))
        (norm): Identity()
      )
      (pos_drop): Dropout(p=0.0, inplace=False)
      (blocks): Sequential(
        (0): Block(
          (norm1): LayerNorm((768,), eps=1e-06, elementwise_affine=True)
          (attn): Attention(
            (q_proj): Linear(in_features=768, out_features=768, bias=True)
            (v_proj): Linear(in_features=768, out_features=768, bias=True)
            (k_proj): Linear(in_features=768, out_features=768, bias=True)
            (attn_drop): Dropout(p=0.0, inplace=False)
            (proj): Linear(in_features=768, out_features=768, bias=True)
            (proj_drop): Dropout(p=0.0, inplace=False)
          )
          (drop_path): Identity()
          (norm2): LayerNorm((768,), eps=1e-06, elementwise_affine=True)
          (fc1): Linear(in_features=768, out_features=3072, bias=True)
          (fc2): Linear(in_features=3072, out_features=768, bias=True)
          (act): GELU(approximate='none')
          (mlp_drop): Dropout(p=0.0, inplace=False)
          (adaptmlp): Adapter(
            (down_proj): Linear(in_features=768, out_features=64, bias=True)
            (non_linear_func): ReLU()
            (up_proj): Linear(in_features=64, out_features=768, bias=True)
          )
        )
        (1): Block(
          (norm1): LayerNorm((768,), eps=1e-06, elementwise_affine=True)
          (attn): Attention(
            (q_proj): Linear(in_features=768, out_features=768, bias=True)
            (v_proj): Linear(in_features=768, out_features=768, bias=True)
            (k_proj): Linear(in_features=768, out_features=768, bias=True)
            (attn_drop): Dropout(p=0.0, inplace=False)
            (proj): Linear(in_features=768, out_features=768, bias=True)
            (proj_drop): Dropout(p=0.0, inplace=False)
          )
          (drop_path): Identity()
          (norm2): LayerNorm((768,), eps=1e-06, elementwise_affine=True)
          (fc1): Linear(in_features=768, out_features=3072, bias=True)
          (fc2): Linear(in_features=3072, out_features=768, bias=True)
          (act): GELU(approximate='none')
          (mlp_drop): Dropout(p=0.0, inplace=False)
          (adaptmlp): Adapter(
            (down_proj): Linear(in_features=768, out_features=64, bias=True)
            (non_linear_func): ReLU()
            (up_proj): Linear(in_features=64, out_features=768, bias=True)
          )
        )
        (2): Block(
          (norm1): LayerNorm((768,), eps=1e-06, elementwise_affine=True)
          (attn): Attention(
            (q_proj): Linear(in_features=768, out_features=768, bias=True)
            (v_proj): Linear(in_features=768, out_features=768, bias=True)
            (k_proj): Linear(in_features=768, out_features=768, bias=True)
            (attn_drop): Dropout(p=0.0, inplace=False)
            (proj): Linear(in_features=768, out_features=768, bias=True)
            (proj_drop): Dropout(p=0.0, inplace=False)
          )
          (drop_path): Identity()
          (norm2): LayerNorm((768,), eps=1e-06, elementwise_affine=True)
          (fc1): Linear(in_features=768, out_features=3072, bias=True)
          (fc2): Linear(in_features=3072, out_features=768, bias=True)
          (act): GELU(approximate='none')
          (mlp_drop): Dropout(p=0.0, inplace=False)
          (adaptmlp): Adapter(
            (down_proj): Linear(in_features=768, out_features=64, bias=True)
            (non_linear_func): ReLU()
            (up_proj): Linear(in_features=64, out_features=768, bias=True)
          )
        )
        (3): Block(
          (norm1): LayerNorm((768,), eps=1e-06, elementwise_affine=True)
          (attn): Attention(
            (q_proj): Linear(in_features=768, out_features=768, bias=True)
            (v_proj): Linear(in_features=768, out_features=768, bias=True)
            (k_proj): Linear(in_features=768, out_features=768, bias=True)
            (attn_drop): Dropout(p=0.0, inplace=False)
            (proj): Linear(in_features=768, out_features=768, bias=True)
            (proj_drop): Dropout(p=0.0, inplace=False)
          )
          (drop_path): Identity()
          (norm2): LayerNorm((768,), eps=1e-06, elementwise_affine=True)
          (fc1): Linear(in_features=768, out_features=3072, bias=True)
          (fc2): Linear(in_features=3072, out_features=768, bias=True)
          (act): GELU(approximate='none')
          (mlp_drop): Dropout(p=0.0, inplace=False)
          (adaptmlp): Adapter(
            (down_proj): Linear(in_features=768, out_features=64, bias=True)
            (non_linear_func): ReLU()
            (up_proj): Linear(in_features=64, out_features=768, bias=True)
          )
        )
        (4): Block(
          (norm1): LayerNorm((768,), eps=1e-06, elementwise_affine=True)
          (attn): Attention(
            (q_proj): Linear(in_features=768, out_features=768, bias=True)
            (v_proj): Linear(in_features=768, out_features=768, bias=True)
            (k_proj): Linear(in_features=768, out_features=768, bias=True)
            (attn_drop): Dropout(p=0.0, inplace=False)
            (proj): Linear(in_features=768, out_features=768, bias=True)
            (proj_drop): Dropout(p=0.0, inplace=False)
          )
          (drop_path): Identity()
          (norm2): LayerNorm((768,), eps=1e-06, elementwise_affine=True)
          (fc1): Linear(in_features=768, out_features=3072, bias=True)
          (fc2): Linear(in_features=3072, out_features=768, bias=True)
          (act): GELU(approximate='none')
          (mlp_drop): Dropout(p=0.0, inplace=False)
          (adaptmlp): Adapter(
            (down_proj): Linear(in_features=768, out_features=64, bias=True)
            (non_linear_func): ReLU()
            (up_proj): Linear(in_features=64, out_features=768, bias=True)
          )
        )
        (5): Block(
          (norm1): LayerNorm((768,), eps=1e-06, elementwise_affine=True)
          (attn): Attention(
            (q_proj): Linear(in_features=768, out_features=768, bias=True)
            (v_proj): Linear(in_features=768, out_features=768, bias=True)
            (k_proj): Linear(in_features=768, out_features=768, bias=True)
            (attn_drop): Dropout(p=0.0, inplace=False)
            (proj): Linear(in_features=768, out_features=768, bias=True)
            (proj_drop): Dropout(p=0.0, inplace=False)
          )
          (drop_path): Identity()
          (norm2): LayerNorm((768,), eps=1e-06, elementwise_affine=True)
          (fc1): Linear(in_features=768, out_features=3072, bias=True)
          (fc2): Linear(in_features=3072, out_features=768, bias=True)
          (act): GELU(approximate='none')
          (mlp_drop): Dropout(p=0.0, inplace=False)
          (adaptmlp): Adapter(
            (down_proj): Linear(in_features=768, out_features=64, bias=True)
            (non_linear_func): ReLU()
            (up_proj): Linear(in_features=64, out_features=768, bias=True)
          )
        )
        (6): Block(
          (norm1): LayerNorm((768,), eps=1e-06, elementwise_affine=True)
          (attn): Attention(
            (q_proj): Linear(in_features=768, out_features=768, bias=True)
            (v_proj): Linear(in_features=768, out_features=768, bias=True)
            (k_proj): Linear(in_features=768, out_features=768, bias=True)
            (attn_drop): Dropout(p=0.0, inplace=False)
            (proj): Linear(in_features=768, out_features=768, bias=True)
            (proj_drop): Dropout(p=0.0, inplace=False)
          )
          (drop_path): Identity()
          (norm2): LayerNorm((768,), eps=1e-06, elementwise_affine=True)
          (fc1): Linear(in_features=768, out_features=3072, bias=True)
          (fc2): Linear(in_features=3072, out_features=768, bias=True)
          (act): GELU(approximate='none')
          (mlp_drop): Dropout(p=0.0, inplace=False)
          (adaptmlp): Adapter(
            (down_proj): Linear(in_features=768, out_features=64, bias=True)
            (non_linear_func): ReLU()
            (up_proj): Linear(in_features=64, out_features=768, bias=True)
          )
        )
        (7): Block(
          (norm1): LayerNorm((768,), eps=1e-06, elementwise_affine=True)
          (attn): Attention(
            (q_proj): Linear(in_features=768, out_features=768, bias=True)
            (v_proj): Linear(in_features=768, out_features=768, bias=True)
            (k_proj): Linear(in_features=768, out_features=768, bias=True)
            (attn_drop): Dropout(p=0.0, inplace=False)
            (proj): Linear(in_features=768, out_features=768, bias=True)
            (proj_drop): Dropout(p=0.0, inplace=False)
          )
          (drop_path): Identity()
          (norm2): LayerNorm((768,), eps=1e-06, elementwise_affine=True)
          (fc1): Linear(in_features=768, out_features=3072, bias=True)
          (fc2): Linear(in_features=3072, out_features=768, bias=True)
          (act): GELU(approximate='none')
          (mlp_drop): Dropout(p=0.0, inplace=False)
          (adaptmlp): Adapter(
            (down_proj): Linear(in_features=768, out_features=64, bias=True)
            (non_linear_func): ReLU()
            (up_proj): Linear(in_features=64, out_features=768, bias=True)
          )
        )
        (8): Block(
          (norm1): LayerNorm((768,), eps=1e-06, elementwise_affine=True)
          (attn): Attention(
            (q_proj): Linear(in_features=768, out_features=768, bias=True)
            (v_proj): Linear(in_features=768, out_features=768, bias=True)
            (k_proj): Linear(in_features=768, out_features=768, bias=True)
            (attn_drop): Dropout(p=0.0, inplace=False)
            (proj): Linear(in_features=768, out_features=768, bias=True)
            (proj_drop): Dropout(p=0.0, inplace=False)
          )
          (drop_path): Identity()
          (norm2): LayerNorm((768,), eps=1e-06, elementwise_affine=True)
          (fc1): Linear(in_features=768, out_features=3072, bias=True)
          (fc2): Linear(in_features=3072, out_features=768, bias=True)
          (act): GELU(approximate='none')
          (mlp_drop): Dropout(p=0.0, inplace=False)
          (adaptmlp): Adapter(
            (down_proj): Linear(in_features=768, out_features=64, bias=True)
            (non_linear_func): ReLU()
            (up_proj): Linear(in_features=64, out_features=768, bias=True)
          )
        )
        (9): Block(
          (norm1): LayerNorm((768,), eps=1e-06, elementwise_affine=True)
          (attn): Attention(
            (q_proj): Linear(in_features=768, out_features=768, bias=True)
            (v_proj): Linear(in_features=768, out_features=768, bias=True)
            (k_proj): Linear(in_features=768, out_features=768, bias=True)
            (attn_drop): Dropout(p=0.0, inplace=False)
            (proj): Linear(in_features=768, out_features=768, bias=True)
            (proj_drop): Dropout(p=0.0, inplace=False)
          )
          (drop_path): Identity()
          (norm2): LayerNorm((768,), eps=1e-06, elementwise_affine=True)
          (fc1): Linear(in_features=768, out_features=3072, bias=True)
          (fc2): Linear(in_features=3072, out_features=768, bias=True)
          (act): GELU(approximate='none')
          (mlp_drop): Dropout(p=0.0, inplace=False)
          (adaptmlp): Adapter(
            (down_proj): Linear(in_features=768, out_features=64, bias=True)
            (non_linear_func): ReLU()
            (up_proj): Linear(in_features=64, out_features=768, bias=True)
          )
        )
        (10): Block(
          (norm1): LayerNorm((768,), eps=1e-06, elementwise_affine=True)
          (attn): Attention(
            (q_proj): Linear(in_features=768, out_features=768, bias=True)
            (v_proj): Linear(in_features=768, out_features=768, bias=True)
            (k_proj): Linear(in_features=768, out_features=768, bias=True)
            (attn_drop): Dropout(p=0.0, inplace=False)
            (proj): Linear(in_features=768, out_features=768, bias=True)
            (proj_drop): Dropout(p=0.0, inplace=False)
          )
          (drop_path): Identity()
          (norm2): LayerNorm((768,), eps=1e-06, elementwise_affine=True)
          (fc1): Linear(in_features=768, out_features=3072, bias=True)
          (fc2): Linear(in_features=3072, out_features=768, bias=True)
          (act): GELU(approximate='none')
          (mlp_drop): Dropout(p=0.0, inplace=False)
          (adaptmlp): Adapter(
            (down_proj): Linear(in_features=768, out_features=64, bias=True)
            (non_linear_func): ReLU()
            (up_proj): Linear(in_features=64, out_features=768, bias=True)
          )
        )
        (11): Block(
          (norm1): LayerNorm((768,), eps=1e-06, elementwise_affine=True)
          (attn): Attention(
            (q_proj): Linear(in_features=768, out_features=768, bias=True)
            (v_proj): Linear(in_features=768, out_features=768, bias=True)
            (k_proj): Linear(in_features=768, out_features=768, bias=True)
            (attn_drop): Dropout(p=0.0, inplace=False)
            (proj): Linear(in_features=768, out_features=768, bias=True)
            (proj_drop): Dropout(p=0.0, inplace=False)
          )
          (drop_path): Identity()
          (norm2): LayerNorm((768,), eps=1e-06, elementwise_affine=True)
          (fc1): Linear(in_features=768, out_features=3072, bias=True)
          (fc2): Linear(in_features=3072, out_features=768, bias=True)
          (act): GELU(approximate='none')
          (mlp_drop): Dropout(p=0.0, inplace=False)
          (adaptmlp): Adapter(
            (down_proj): Linear(in_features=768, out_features=64, bias=True)
            (non_linear_func): ReLU()
            (up_proj): Linear(in_features=64, out_features=768, bias=True)
          )
        )
      )
      (norm): LayerNorm((768,), eps=1e-06, elementwise_affine=True)
      (pre_logits): Identity()
      (head): Identity()
    )
  )
  (fc): CosineLinear2()
)
Use AC model as classifier head.
AC model architecture: AC_Linear(
  (fc): Sequential(
    (0): Linear(in_features=768, out_features=5000, bias=False)
    (1): ReLU()
    (2): Linear(in_features=5000, out_features=10, bias=False)
  )
)
Computing class means and covariance matrices...
Extracting prototypes...
100%|██████████| 8/8 [00:03<00:00,  2.24it/s]
Extracted vectors shape: (500, 768) float32
Extracted targets shape: (500,) int64
Class 0 covariance matrix shape: (768, 768)
Extracting prototypes...
100%|██████████| 8/8 [00:03<00:00,  2.24it/s]
Extracted vectors shape: (500, 768) float32
…
